…
I0413 00:33:12.526106 15869 net.cpp:295] The NetState phase (0) differed from the phase (1) specified by a rule in layer labelout
I0413 00:33:12.526186 15869 net.cpp:52] Initializing net from parameters: 
state {
  phase: TRAIN
}
layer {
  name: "data"
  type: "MolGridData"
  top: "data"
  top: "label"
  include {
    phase: TRAIN
  }
  molgrid_data_param {
    source: "/home/iiitd/gina/models/data/csar/alltrain0.types"
    batch_size: 50
    dimension: 23.5
    resolution: 0.5
    shuffle: true
    balanced: true
    root_folder: "/home/iiitd/gina/models/data/csar"
    random_rotation: true
    random_translate: 2
    ligmap: "ligmap.old"
  }
}
layer {
  name: "unit1_pool"
  type: "Pooling"
  bottom: "data"
  top: "unit1_pool"
  pooling_param {
    pool: MAX
    kernel_size: 2
    stride: 2
  }
}
layer {
  name: "unit1_conv1"
  type: "Convolution"
  bottom: "unit1_pool"
  top: "unit1_conv1"
  convolution_param {
    num_output: 32
    pad: 1
    kernel_size: 3
    stride: 1
    weight_filler {
      type: "xavier"
    }
  }
}
layer {
  name: "unit1_relu1"
  type: "ReLU"
  bottom: "unit1_conv1"
  top: "unit1_conv1"
}
layer {
  name: "unit2_pool"
  type: "Pooling"
  bottom: "unit1_conv1"
  top: "unit2_pool"
  pooling_param {
    pool: MAX
    kernel_size: 2
    stride: 2
  }
}
layer {
  name: "unit2_conv1"
  type: "Convolution"
  bottom: "unit2_pool"
  top: "unit2_conv1"
  convolution_param {
    num_output: 64
    pad: 1
    kernel_size: 3
    stride: 1
    weight_filler {
      type: "xavier"
    }
  }
}
layer {
  name: "unit2_relu1"
  type: "ReLU"
  bottom: "unit2_conv1"
  top: "unit2_conv1"
}
layer {
  name: "unit3_pool"
  type: "Pooling"
  bottom: "unit2_conv1"
  top: "unit3_pool"
  pooling_param {
    pool: MAX
    kernel_size: 2
    stride: 2
  }
}
layer {
  name: "unit3_conv1"
  type: "Convolution"
  bottom: "unit3_pool"
  top: "unit3_conv1"
  convolution_param {
    num_output: 128
    pad: 1
    kernel_size: 3
    stride: 1
    weight_filler {
      type: "xavier"
    }
  }
}
layer {
  name: "unit3_relu1"
  type: "ReLU"
  bottom: "unit3_conv1"
  top: "unit3_conv1"
}
layer {
  name: "output_fc"
  type: "InnerProduct"
  bottom: "unit3_conv1"
  top: "output_fc"
  inner_product_param {
    num_output: 2
    weight_filler {
      type: "xavier"
    }
  }
}
layer {
  name: "loss"
  type: "SoftmaxWithLoss"
  bottom: "output_fc"
  bottom: "label"
  top: "loss"
}
layer {
  name: "output"
  type: "Softmax"
  bottom: "output_fc"
  top: "output"
}
I0413 00:33:12.526244 15869 layer_factory.hpp:77] Creating layer data
I0413 00:33:12.526265 15869 net.cpp:85] Creating Layer data
I0413 00:33:12.526275 15869 net.cpp:385] data -> data
I0413 00:33:12.526289 15869 net.cpp:385] data -> label
I0413 00:33:12.526319 15869 molgrid_data_layer.cpp:450] Opening file /home/iiitd/gina/models/data/csar/alltrain0.types
I0413 00:33:12.532099 15869 molgrid_data_layer.cpp:616] Total examples: 2671
I0413 00:33:12.533200 15869 net.cpp:123] Setting up data
I0413 00:33:12.533239 15869 net.cpp:130] Top shape: 50 34 48 48 48 (188006400)
I0413 00:33:12.533248 15869 net.cpp:130] Top shape: 50 (50)
I0413 00:33:12.533254 15869 net.cpp:138] Memory required for data: 752025800
I0413 00:33:12.533264 15869 layer_factory.hpp:77] Creating layer unit1_pool
I0413 00:33:12.533282 15869 net.cpp:85] Creating Layer unit1_pool
I0413 00:33:12.533289 15869 net.cpp:411] unit1_pool <- data
I0413 00:33:12.533309 15869 net.cpp:385] unit1_pool -> unit1_pool
I0413 00:33:12.533447 15869 net.cpp:123] Setting up unit1_pool
I0413 00:33:12.533457 15869 net.cpp:130] Top shape: 50 34 24 24 24 (23500800)
I0413 00:33:12.533464 15869 net.cpp:138] Memory required for data: 846029000
I0413 00:33:12.533471 15869 layer_factory.hpp:77] Creating layer unit1_conv1
I0413 00:33:12.533484 15869 net.cpp:85] Creating Layer unit1_conv1
I0413 00:33:12.533491 15869 net.cpp:411] unit1_conv1 <- unit1_pool
I0413 00:33:12.533500 15869 net.cpp:385] unit1_conv1 -> unit1_conv1
I0413 00:33:12.535771 15869 net.cpp:123] Setting up unit1_conv1
I0413 00:33:12.535809 15869 net.cpp:130] Top shape: 50 32 24 24 24 (22118400)
I0413 00:33:12.535816 15869 net.cpp:138] Memory required for data: 934502600
I0413 00:33:12.535836 15869 layer_factory.hpp:77] Creating layer unit1_relu1
I0413 00:33:12.535851 15869 net.cpp:85] Creating Layer unit1_relu1
I0413 00:33:12.535858 15869 net.cpp:411] unit1_relu1 <- unit1_conv1
I0413 00:33:12.535867 15869 net.cpp:368] unit1_relu1 -> unit1_conv1 (in-place)
I0413 00:33:12.535887 15869 net.cpp:123] Setting up unit1_relu1
I0413 00:33:12.535895 15869 net.cpp:130] Top shape: 50 32 24 24 24 (22118400)
I0413 00:33:12.535902 15869 net.cpp:138] Memory required for data: 1022976200
I0413 00:33:12.535907 15869 layer_factory.hpp:77] Creating layer unit2_pool
I0413 00:33:12.535919 15869 net.cpp:85] Creating Layer unit2_pool
I0413 00:33:12.535925 15869 net.cpp:411] unit2_pool <- unit1_conv1
I0413 00:33:12.535933 15869 net.cpp:385] unit2_pool -> unit2_pool
I0413 00:33:12.536084 15869 net.cpp:123] Setting up unit2_pool
I0413 00:33:12.536095 15869 net.cpp:130] Top shape: 50 32 12 12 12 (2764800)
I0413 00:33:12.536103 15869 net.cpp:138] Memory required for data: 1034035400
I0413 00:33:12.536109 15869 layer_factory.hpp:77] Creating layer unit2_conv1
I0413 00:33:12.536123 15869 net.cpp:85] Creating Layer unit2_conv1
I0413 00:33:12.536130 15869 net.cpp:411] unit2_conv1 <- unit2_pool
I0413 00:33:12.536141 15869 net.cpp:385] unit2_conv1 -> unit2_conv1
I0413 00:33:12.537586 15869 net.cpp:123] Setting up unit2_conv1
I0413 00:33:12.537621 15869 net.cpp:130] Top shape: 50 64 12 12 12 (5529600)
I0413 00:33:12.537629 15869 net.cpp:138] Memory required for data: 1056153800
I0413 00:33:12.537645 15869 layer_factory.hpp:77] Creating layer unit2_relu1
I0413 00:33:12.537658 15869 net.cpp:85] Creating Layer unit2_relu1
I0413 00:33:12.537665 15869 net.cpp:411] unit2_relu1 <- unit2_conv1
I0413 00:33:12.537678 15869 net.cpp:368] unit2_relu1 -> unit2_conv1 (in-place)
I0413 00:33:12.537690 15869 net.cpp:123] Setting up unit2_relu1
I0413 00:33:12.537698 15869 net.cpp:130] Top shape: 50 64 12 12 12 (5529600)
I0413 00:33:12.537704 15869 net.cpp:138] Memory required for data: 1078272200
I0413 00:33:12.537710 15869 layer_factory.hpp:77] Creating layer unit3_pool
I0413 00:33:12.537721 15869 net.cpp:85] Creating Layer unit3_pool
I0413 00:33:12.537727 15869 net.cpp:411] unit3_pool <- unit2_conv1
I0413 00:33:12.537735 15869 net.cpp:385] unit3_pool -> unit3_pool
I0413 00:33:12.537894 15869 net.cpp:123] Setting up unit3_pool
I0413 00:33:12.537904 15869 net.cpp:130] Top shape: 50 64 6 6 6 (691200)
I0413 00:33:12.537910 15869 net.cpp:138] Memory required for data: 1081037000
I0413 00:33:12.537917 15869 layer_factory.hpp:77] Creating layer unit3_conv1
I0413 00:33:12.537933 15869 net.cpp:85] Creating Layer unit3_conv1
I0413 00:33:12.537940 15869 net.cpp:411] unit3_conv1 <- unit3_pool
I0413 00:33:12.537948 15869 net.cpp:385] unit3_conv1 -> unit3_conv1
I0413 00:33:12.540464 15869 net.cpp:123] Setting up unit3_conv1
I0413 00:33:12.540501 15869 net.cpp:130] Top shape: 50 128 6 6 6 (1382400)
I0413 00:33:12.540509 15869 net.cpp:138] Memory required for data: 1086566600
I0413 00:33:12.540524 15869 layer_factory.hpp:77] Creating layer unit3_relu1
I0413 00:33:12.540706 15869 net.cpp:85] Creating Layer unit3_relu1
I0413 00:33:12.540714 15869 net.cpp:411] unit3_relu1 <- unit3_conv1
I0413 00:33:12.540724 15869 net.cpp:368] unit3_relu1 -> unit3_conv1 (in-place)
I0413 00:33:12.540743 15869 net.cpp:123] Setting up unit3_relu1
I0413 00:33:12.540752 15869 net.cpp:130] Top shape: 50 128 6 6 6 (1382400)
I0413 00:33:12.540760 15869 net.cpp:138] Memory required for data: 1092096200
I0413 00:33:12.540766 15869 layer_factory.hpp:77] Creating layer output_fc
I0413 00:33:12.540776 15869 net.cpp:85] Creating Layer output_fc
I0413 00:33:12.540782 15869 net.cpp:411] output_fc <- unit3_conv1
I0413 00:33:12.540792 15869 net.cpp:385] output_fc -> output_fc
I0413 00:33:12.541234 15869 net.cpp:123] Setting up output_fc
I0413 00:33:12.541252 15869 net.cpp:130] Top shape: 50 2 (100)
I0413 00:33:12.541258 15869 net.cpp:138] Memory required for data: 1092096600
I0413 00:33:12.541270 15869 layer_factory.hpp:77] Creating layer output_fc_output_fc_0_split
I0413 00:33:12.541280 15869 net.cpp:85] Creating Layer output_fc_output_fc_0_split
I0413 00:33:12.541286 15869 net.cpp:411] output_fc_output_fc_0_split <- output_fc
I0413 00:33:12.541296 15869 net.cpp:385] output_fc_output_fc_0_split -> output_fc_output_fc_0_split_0
I0413 00:33:12.541307 15869 net.cpp:385] output_fc_output_fc_0_split -> output_fc_output_fc_0_split_1
I0413 00:33:12.541347 15869 net.cpp:123] Setting up output_fc_output_fc_0_split
I0413 00:33:12.541357 15869 net.cpp:130] Top shape: 50 2 (100)
I0413 00:33:12.541363 15869 net.cpp:130] Top shape: 50 2 (100)
I0413 00:33:12.541370 15869 net.cpp:138] Memory required for data: 1092097400
I0413 00:33:12.541376 15869 layer_factory.hpp:77] Creating layer loss
I0413 00:33:12.541385 15869 net.cpp:85] Creating Layer loss
I0413 00:33:12.541393 15869 net.cpp:411] loss <- output_fc_output_fc_0_split_0
I0413 00:33:12.541400 15869 net.cpp:411] loss <- label
I0413 00:33:12.541409 15869 net.cpp:385] loss -> loss
I0413 00:33:12.541420 15869 layer_factory.hpp:77] Creating layer loss
I0413 00:33:12.541499 15869 net.cpp:123] Setting up loss
I0413 00:33:12.541509 15869 net.cpp:130] Top shape: (1)
I0413 00:33:12.541515 15869 net.cpp:133]     with loss weight 1
I0413 00:33:12.541528 15869 net.cpp:138] Memory required for data: 1092097404
I0413 00:33:12.541535 15869 layer_factory.hpp:77] Creating layer output
I0413 00:33:12.541543 15869 net.cpp:85] Creating Layer output
I0413 00:33:12.541550 15869 net.cpp:411] output <- output_fc_output_fc_0_split_1
I0413 00:33:12.541559 15869 net.cpp:385] output -> output
I0413 00:33:12.541612 15869 net.cpp:123] Setting up output
I0413 00:33:12.541621 15869 net.cpp:130] Top shape: 50 2 (100)
I0413 00:33:12.541628 15869 net.cpp:138] Memory required for data: 1092097804
I0413 00:33:12.541635 15869 net.cpp:201] output does not need backward computation.
I0413 00:33:12.541642 15869 net.cpp:199] loss needs backward computation.
I0413 00:33:12.541649 15869 net.cpp:199] output_fc_output_fc_0_split needs backward computation.
I0413 00:33:12.541656 15869 net.cpp:199] output_fc needs backward computation.
…
I0413 00:33:12.542035 15869 net.cpp:295] The NetState phase (1) differed from the phase (0) specified by a rule in layer data
I0413 00:33:12.542137 15869 net.cpp:52] Initializing net from parameters: 
state {
  phase: TEST
}
layer {
  name: "data"
  type: "MolGridData"
  top: "data"
  top: "label"
  include {
    phase: TEST
  }
  molgrid_data_param {
    source: "/home/iiitd/gina/models/data/csar/alltest0.types"
    batch_size: 50
    dimension: 23.5
    resolution: 0.5
    shuffle: false
    balanced: false
    root_folder: "/home/iiitd/gina/models/data/csar"
    ligmap: "ligmap.old"
  }
}
layer {
  name: "unit1_pool"
  type: "Pooling"
  bottom: "data"
  top: "unit1_pool"
  pooling_param {
    pool: MAX
    kernel_size: 2
    stride: 2
  }
}
layer {
  name: "unit1_conv1"
  type: "Convolution"
  bottom: "unit1_pool"
  top: "unit1_conv1"
  convolution_param {
    num_output: 32
    pad: 1
    kernel_size: 3
    stride: 1
    weight_filler {
      type: "xavier"
    }
  }
}
layer {
  name: "unit1_relu1"
  type: "ReLU"
  bottom: "unit1_conv1"
  top: "unit1_conv1"
}
layer {
  name: "unit2_pool"
  type: "Pooling"
  bottom: "unit1_conv1"
  top: "unit2_pool"
  pooling_param {
    pool: MAX
    kernel_size: 2
    stride: 2
  }
}
layer {
  name: "unit2_conv1"
  type: "Convolution"
  bottom: "unit2_pool"
  top: "unit2_conv1"
  convolution_param {
    num_output: 64
    pad: 1
    kernel_size: 3
    stride: 1
    weight_filler {
      type: "xavier"
    }
  }
}
layer {
  name: "unit2_relu1"
  type: "ReLU"
  bottom: "unit2_conv1"
  top: "unit2_conv1"
}
layer {
  name: "unit3_pool"
  type: "Pooling"
  bottom: "unit2_conv1"
  top: "unit3_pool"
  pooling_param {
    pool: MAX
    kernel_size: 2
    stride: 2
  }
}
layer {
  name: "unit3_conv1"
  type: "Convolution"
  bottom: "unit3_pool"
  top: "unit3_conv1"
  convolution_param {
    num_output: 128
    pad: 1
    kernel_size: 3
    stride: 1
    weight_filler {
      type: "xavier"
    }
  }
}
layer {
  name: "unit3_relu1"
  type: "ReLU"
  bottom: "unit3_conv1"
  top: "unit3_conv1"
}
layer {
  name: "output_fc"
  type: "InnerProduct"
  bottom: "unit3_conv1"
  top: "output_fc"
  inner_product_param {
    num_output: 2
    weight_filler {
      type: "xavier"
    }
  }
}
layer {
  name: "loss"
  type: "SoftmaxWithLoss"
  bottom: "output_fc"
  bottom: "label"
  top: "loss"
}
layer {
  name: "output"
  type: "Softmax"
  bottom: "output_fc"
  top: "output"
}
layer {
  name: "labelout"
  type: "Reshape"
  bottom: "label"
  top: "labelout"
  include {
    phase: TEST
  }
  reshape_param {
    shape {
      dim: 0
      dim: -1
    }
  }
}
I0413 00:33:12.542199 15869 layer_factory.hpp:77] Creating layer data
I0413 00:33:12.542214 15869 net.cpp:85] Creating Layer data
I0413 00:33:12.542223 15869 net.cpp:385] data -> data
I0413 00:33:12.542235 15869 net.cpp:385] data -> label
I0413 00:33:12.542250 15869 molgrid_data_layer.cpp:450] Opening file /home/iiitd/gina/models/data/csar/alltest0.types
I0413 00:33:12.544874 15869 molgrid_data_layer.cpp:616] Total examples: 1325
I0413 00:33:12.545030 15869 net.cpp:123] Setting up data
I0413 00:33:12.545045 15869 net.cpp:130] Top shape: 50 34 48 48 48 (188006400)
I0413 00:33:12.545053 15869 net.cpp:130] Top shape: 50 (50)
I0413 00:33:12.545059 15869 net.cpp:138] Memory required for data: 752025800
I0413 00:33:12.545069 15869 layer_factory.hpp:77] Creating layer label_data_1_split
I0413 00:33:12.545083 15869 net.cpp:85] Creating Layer label_data_1_split
I0413 00:33:12.545090 15869 net.cpp:411] label_data_1_split <- label
I0413 00:33:12.545100 15869 net.cpp:385] label_data_1_split -> label_data_1_split_0
I0413 00:33:12.545114 15869 net.cpp:385] label_data_1_split -> label_data_1_split_1
I0413 00:33:12.545151 15869 net.cpp:123] Setting up label_data_1_split
I0413 00:33:12.545161 15869 net.cpp:130] Top shape: 50 (50)
I0413 00:33:12.545168 15869 net.cpp:130] Top shape: 50 (50)
I0413 00:33:12.545176 15869 net.cpp:138] Memory required for data: 752026200
I0413 00:33:12.545182 15869 layer_factory.hpp:77] Creating layer unit1_pool
I0413 00:33:12.545192 15869 net.cpp:85] Creating Layer unit1_pool
I0413 00:33:12.545199 15869 net.cpp:411] unit1_pool <- data
I0413 00:33:12.545217 15869 net.cpp:385] unit1_pool -> unit1_pool
I0413 00:33:12.545366 15869 net.cpp:123] Setting up unit1_pool
I0413 00:33:12.545377 15869 net.cpp:130] Top shape: 50 34 24 24 24 (23500800)
I0413 00:33:12.545384 15869 net.cpp:138] Memory required for data: 846029400
I0413 00:33:12.545392 15869 layer_factory.hpp:77] Creating layer unit1_conv1
I0413 00:33:12.545405 15869 net.cpp:85] Creating Layer unit1_conv1
I0413 00:33:12.545413 15869 net.cpp:411] unit1_conv1 <- unit1_pool
I0413 00:33:12.545421 15869 net.cpp:385] unit1_conv1 -> unit1_conv1
I0413 00:33:12.545804 15869 net.cpp:123] Setting up unit1_conv1
I0413 00:33:12.545820 15869 net.cpp:130] Top shape: 50 32 24 24 24 (22118400)
I0413 00:33:12.545827 15869 net.cpp:138] Memory required for data: 934503000
I0413 00:33:12.545841 15869 layer_factory.hpp:77] Creating layer unit1_relu1
I0413 00:33:12.545855 15869 net.cpp:85] Creating Layer unit1_relu1
I0413 00:33:12.545861 15869 net.cpp:411] unit1_relu1 <- unit1_conv1
I0413 00:33:12.545869 15869 net.cpp:368] unit1_relu1 -> unit1_conv1 (in-place)
I0413 00:33:12.545879 15869 net.cpp:123] Setting up unit1_relu1
I0413 00:33:12.545887 15869 net.cpp:130] Top shape: 50 32 24 24 24 (22118400)
I0413 00:33:12.545893 15869 net.cpp:138] Memory required for data: 1022976600
I0413 00:33:12.545900 15869 layer_factory.hpp:77] Creating layer unit2_pool
I0413 00:33:12.545910 15869 net.cpp:85] Creating Layer unit2_pool
I0413 00:33:12.545917 15869 net.cpp:411] unit2_pool <- unit1_conv1
I0413 00:33:12.545924 15869 net.cpp:385] unit2_pool -> unit2_pool
I0413 00:33:12.546068 15869 net.cpp:123] Setting up unit2_pool
I0413 00:33:12.546079 15869 net.cpp:130] Top shape: 50 32 12 12 12 (2764800)
I0413 00:33:12.546087 15869 net.cpp:138] Memory required for data: 1034035800
I0413 00:33:12.546092 15869 layer_factory.hpp:77] Creating layer unit2_conv1
I0413 00:33:12.546103 15869 net.cpp:85] Creating Layer unit2_conv1
I0413 00:33:12.546109 15869 net.cpp:411] unit2_conv1 <- unit2_pool
I0413 00:33:12.546119 15869 net.cpp:385] unit2_conv1 -> unit2_conv1
I0413 00:33:12.546725 15869 net.cpp:123] Setting up unit2_conv1
I0413 00:33:12.546746 15869 net.cpp:130] Top shape: 50 64 12 12 12 (5529600)
I0413 00:33:12.546751 15869 net.cpp:138] Memory required for data: 1056154200
I0413 00:33:12.546766 15869 layer_factory.hpp:77] Creating layer unit2_relu1
I0413 00:33:12.546777 15869 net.cpp:85] Creating Layer unit2_relu1
I0413 00:33:12.546784 15869 net.cpp:411] unit2_relu1 <- unit2_conv1
I0413 00:33:12.546792 15869 net.cpp:368] unit2_relu1 -> unit2_conv1 (in-place)
I0413 00:33:12.546803 15869 net.cpp:123] Setting up unit2_relu1
I0413 00:33:12.546810 15869 net.cpp:130] Top shape: 50 64 12 12 12 (5529600)
I0413 00:33:12.546818 15869 net.cpp:138] Memory required for data: 1078272600
I0413 00:33:12.546823 15869 layer_factory.hpp:77] Creating layer unit3_pool
I0413 00:33:12.546835 15869 net.cpp:85] Creating Layer unit3_pool
I0413 00:33:12.546841 15869 net.cpp:411] unit3_pool <- unit2_conv1
I0413 00:33:12.546849 15869 net.cpp:385] unit3_pool -> unit3_pool
I0413 00:33:12.546998 15869 net.cpp:123] Setting up unit3_pool
I0413 00:33:12.547010 15869 net.cpp:130] Top shape: 50 64 6 6 6 (691200)
I0413 00:33:12.547019 15869 net.cpp:138] Memory required for data: 1081037400
I0413 00:33:12.547024 15869 layer_factory.hpp:77] Creating layer unit3_conv1
I0413 00:33:12.547036 15869 net.cpp:85] Creating Layer unit3_conv1
I0413 00:33:12.547044 15869 net.cpp:411] unit3_conv1 <- unit3_pool
I0413 00:33:12.547051 15869 net.cpp:385] unit3_conv1 -> unit3_conv1
I0413 00:33:12.548699 15869 net.cpp:123] Setting up unit3_conv1
I0413 00:33:12.548732 15869 net.cpp:130] Top shape: 50 128 6 6 6 (1382400)
I0413 00:33:12.548740 15869 net.cpp:138] Memory required for data: 1086567000
I0413 00:33:12.548754 15869 layer_factory.hpp:77] Creating layer unit3_relu1
I0413 00:33:12.548766 15869 net.cpp:85] Creating Layer unit3_relu1
I0413 00:33:12.548774 15869 net.cpp:411] unit3_relu1 <- unit3_conv1
I0413 00:33:12.548782 15869 net.cpp:368] unit3_relu1 -> unit3_conv1 (in-place)
I0413 00:33:12.548801 15869 net.cpp:123] Setting up unit3_relu1
I0413 00:33:12.548810 15869 net.cpp:130] Top shape: 50 128 6 6 6 (1382400)
I0413 00:33:12.548816 15869 net.cpp:138] Memory required for data: 1092096600
I0413 00:33:12.548823 15869 layer_factory.hpp:77] Creating layer output_fc
I0413 00:33:12.548836 15869 net.cpp:85] Creating Layer output_fc
I0413 00:33:12.548842 15869 net.cpp:411] output_fc <- unit3_conv1
I0413 00:33:12.548851 15869 net.cpp:385] output_fc -> output_fc
I0413 00:33:12.549280 15869 net.cpp:123] Setting up output_fc
I0413 00:33:12.549298 15869 net.cpp:130] Top shape: 50 2 (100)
I0413 00:33:12.549304 15869 net.cpp:138] Memory required for data: 1092097000
I0413 00:33:12.549314 15869 layer_factory.hpp:77] Creating layer output_fc_output_fc_0_split
I0413 00:33:12.549326 15869 net.cpp:85] Creating Layer output_fc_output_fc_0_split
I0413 00:33:12.549333 15869 net.cpp:411] output_fc_output_fc_0_split <- output_fc
I0413 00:33:12.549341 15869 net.cpp:385] output_fc_output_fc_0_split -> output_fc_output_fc_0_split_0
I0413 00:33:12.549352 15869 net.cpp:385] output_fc_output_fc_0_split -> output_fc_output_fc_0_split_1
I0413 00:33:12.549396 15869 net.cpp:123] Setting up output_fc_output_fc_0_split
I0413 00:33:12.549405 15869 net.cpp:130] Top shape: 50 2 (100)
I0413 00:33:12.549412 15869 net.cpp:130] Top shape: 50 2 (100)
I0413 00:33:12.549418 15869 net.cpp:138] Memory required for data: 1092097800
I0413 00:33:12.549425 15869 layer_factory.hpp:77] Creating layer loss
I0413 00:33:12.549434 15869 net.cpp:85] Creating Layer loss
I0413 00:33:12.549440 15869 net.cpp:411] loss <- output_fc_output_fc_0_split_0
I0413 00:33:12.549448 15869 net.cpp:411] loss <- label_data_1_split_0
I0413 00:33:12.549458 15869 net.cpp:385] loss -> loss
I0413 00:33:12.549469 15869 layer_factory.hpp:77] Creating layer loss
I0413 00:33:12.549551 15869 net.cpp:123] Setting up loss
I0413 00:33:12.549561 15869 net.cpp:130] Top shape: (1)
I0413 00:33:12.549566 15869 net.cpp:133]     with loss weight 1
I0413 00:33:12.549580 15869 net.cpp:138] Memory required for data: 1092097804
I0413 00:33:12.549587 15869 layer_factory.hpp:77] Creating layer output
I0413 00:33:12.549595 15869 net.cpp:85] Creating Layer output
I0413 00:33:12.549603 15869 net.cpp:411] output <- output_fc_output_fc_0_split_1
I0413 00:33:12.549612 15869 net.cpp:385] output -> output
I0413 00:33:12.549667 15869 net.cpp:123] Setting up output
I0413 00:33:12.549677 15869 net.cpp:130] Top shape: 50 2 (100)
I0413 00:33:12.549685 15869 net.cpp:138] Memory required for data: 1092098204
I0413 00:33:12.549690 15869 layer_factory.hpp:77] Creating layer labelout
I0413 00:33:12.549701 15869 net.cpp:85] Creating Layer labelout
I0413 00:33:12.549708 15869 net.cpp:411] labelout <- label_data_1_split_1
I0413 00:33:12.549717 15869 net.cpp:385] labelout -> labelout
I0413 00:33:12.549743 15869 net.cpp:123] Setting up labelout
I0413 00:33:12.549752 15869 net.cpp:130] Top shape: 50 1 (50)
I0413 00:33:12.549759 15869 net.cpp:138] Memory required for data: 1092098404
I0413 00:33:12.549767 15869 net.cpp:201] labelout does not need backward computation.
I0413 00:33:12.549773 15869 net.cpp:201] output does not need backward computation.
I0413 00:33:12.549780 15869 net.cpp:199] loss needs backward computation.
I0413 00:33:12.549787 15869 net.cpp:199] output_fc_output_fc_0_split needs backward computation.
…
